wct_weights/feature_invertor_conv2_1.pth (torch_old, 450842 bytes, 6 tensors)

1.weight f4 [64, 128, 3, 3]
0	0xbc2b2ba7	-0.010447419
1	0x3c84692a	0.016163427
2	0xbc112bc2	-0.00886053
3	0x3c2230d8	0.009899341
4	0xbc46aed6	-0.012126645
5	0xbc333589	-0.010938057
6	0x3c19bf0d	0.009383929
7	0xbc468839	-0.012117439
8	0xbbc85218	-0.006113302
9	0x3cdc39aa	0.026882965
10	0xbc843431	-0.016138168
11	0x3c66a121	0.014076502
12	0x3b87ca2b	0.0041439733
13	0xbcb210dc	-0.021736555
14	0x3c79cd49	0.015246698
15	0xbbb6a88a	-0.0055742906
16	0x3c7c354f	0.015393569
17	0xbb273ef7	-0.0025519708
18	0xbb90b8d8	-0.0044165663
19	0x3a9a19c8	0.0011756951
20	0x3c31da5e	0.010855285
21	0xbc5e1af9	-0.0135562355
22	0x3cc2967f	0.023753403
23	0xbc8f5e38	-0.017500982
24	0xbc151c58	-0.009100996
25	0xba0d49b0	-0.00053897034
26	0x3c4e9706	0.012609249
27	0x3bc3f208	0.00597978
28	0xbb2748ea	-0.0025525638
29	0xbaf3c32b	-0.0018597593
30	0x3b57bb1c	0.0032917922
31	0xbbda8f31	-0.006669902
32	0xbc4abd73	-0.01237427
33	0xbc9a8890	-0.018863946
34	0x3b86d580	0.0041148067
35	0xbca32f25	-0.019919941
36	0xbc8a218d	-0.016861701
37	0x3c15f630	0.009152934
38	0x3ccd9237	0.025094135
39	0xbcaac701	-0.020846846
40	0x3bc77acc	0.0060876366
41	0xbc232929	-0.009958544
42	0xbba31d23	-0.0049778386
43	0x3bc4a7c9	0.006001447
44	0x3c441bf5	0.011969556
45	0x3bfff10d	0.007810718
46	0x3b11aa76	0.0022226847
47	0x3c33204a	0.010932991
48	0x3c866838	0.016407117
49	0xbc7d5855	-0.0154629545
50	0xbca0a202	-0.019608501
51	0x3be6405d	0.0070267157
52	0x3c2ed65b	0.0106712235
53	0xbcfbe3c8	-0.030748263
54	0xbb875bde	-0.0041308245
55	0x3d5f5c34	0.05453129
56	0x3c18d84b	0.009328912
57	0x3d727f6e	0.059203558
58	0x3d3302cd	0.043703843
59	0xbc5e7778	-0.013578288
60	0x3d00d627	0.03145423
61	0x3c8bad98	0.01705055
62	0xbbdf1df4	-0.0068089906
63	0xbc8681fa	-0.0164194
64	0xbb9bbdd3	-0.0047528534
65	0x3bb1030b	0.005401974
66	0x3c828716	0.015933555
67	0x3b3379a5	0.0027385738
68	0x3ca68c2c	0.020330511
69	0x3ce78f85	0.028266678
70	0xbc3eb53d	-0.01163989
71	0x3bb21f10	0.005435832
72	0x3c776197	0.015098951
73	0xbc7b41b5	-0.01533549
74	0x3cf9f09f	0.030510245
75	0xbb8c70f8	-0.004285928
76	0xbc7b9bc4	-0.015356962
77	0xbcb0e5bb	-0.021593919
78	0x3c1f7754	0.00973304
79	0xbca31155	-0.019905725
80	0x3b921fe3	0.0044593676
81	0x3c8ac086	0.016937505
82	0x3a7e15ab	0.000969256
83	0x3c10f370	0.0088471025
84	0x3b5984ea	0.0033190795
85	0xbca2ccfa	-0.019873131
86	0x3c87f437	0.016595943
87	0xbcd9400b	-0.026519796
88	0x3cae6bc5	0.021291623
89	0x3cafc4a3	0.021456068
90	0x3c58c3b5	0.013230254
91	0x3c679e5e	0.014136879
92	0xbbade91f	-0.005307331
93	0xbc49c6e4	-0.012315486
94	0xbcb35d1b	-0.021894982
95	0x3cb8b920	0.022549212
96	0xbc250e6f	-0.010074242
97	0x3c571c4d	0.013129306
98	0xbc2bed82	-0.010493638
99	0x3c72b9dc	0.01481482
100	0xbba95092	-0.0051670754
101	0xbb64ded7	-0.0034922862
102	0xbc5f79f3	-0.013639915
103	0xbb8b3683	-0.0042484417
104	0x3c3eedf3	0.011653411
105	0x3c21ca3a	0.009874875
106	0xbc4d0cb9	-0.01251524
107	0x3bbdbcf4	0.0057903472
108	0x3b97846e	0.004623941
109	0xbc60629e	-0.013695387
110	0x3b58ebcb	0.0033099528
111	0xbaf5c3af	-0.0018750335
112	0x3ab37039	0.0013690061
113	0x3b2790d1	0.0025568495
114	0x39c0b1f9	0.00036753694
115	0x3b15ad80	0.002283901
116	0x3cf069c2	0.029347304
117	0x3c25dff8	0.010124199
118	0xbc9dc574	-0.019259192
119	0x3be2c4b0	0.0069204196
120	0xb9f03ac1	-0.00045820142
121	0x3c0a3214	0.008434791
122	0xbc6628cc	-0.014047813
123	0xbc190f02	-0.009341957
124	0xbc6cca88	-0.014452584
125	0x3c44017b	0.011963244
126	0x3cc728cd	0.024311448
127	0xbcc334d6	-0.023828905
128	0x3c2ae366	0.010430193
129	0xbc2816b2	-0.010259317
130	0xbc75d623	-0.015004667
131	0xbc8b009c	-0.016968064
132	0xb94efa0a	-0.00019738838
133	0xbcd20e0c	-0.025641464
134	0x3c676f5c	0.014125671
135	0xbc8bc30e	-0.017060783
136	0xbbc15b3e	-0.0059007695
137	0x3c8a5df0	0.016890496
138	0x3c003ceb	0.007827024
139	0xbd1cd8f3	-0.038292836
140	0xbccd3b68	-0.025052741
141	0x3c0eec41	0.0087233195
142	0xbcbd1af1	-0.023084136
143	0x3ba4b04e	0.0050259
144	0xbc280383	-0.0102547435
145	0xbce05602	-0.027384762
146	0x3b97141a	0.0046105506
147	0xb9f522c4	-0.00046755944
148	0xbc35ce46	-0.011096543
149	0xbc9858f7	-0.01859711
150	0xbb1cca22	-0.0023924191
151	0x3a276c84	0.00063867145
152	0x3c045a54	0.0080781765
153	0x3c0f4e1e	0.008746652
154	0x3aae5c16	0.001330259
155	0xbb958e73	-0.0045641004
156	0x3c24abb5	0.010050704
157	0xbc631411	-0.013859765
158	0x3c345da7	0.011008657
159	0x3c7ab246	0.015301293
160	0xbb5c642a	-0.0033629038
161	0xba95db45	-0.0011433145
162	0x3cb7f92e	0.022457685
163	0x3c0946db	0.00837871
164	0x398b7d82	0.00026605657
165	0xbbbf1b5d	-0.0058321194
166	0xbcbb22b5	-0.022843698
167	0xbc6e19e3	-0.014532539
168	0xbc40a010	-0.011756912
169	0x3bc2d29a	0.005945516
170	0x3c21d7fb	0.009878154
171	0x3c720879	0.014772528
172	0x39528104	0.00020075223
173	0x3c270165	0.010193204
174	0xbbd0b5b8	-0.006369319
175	0x3bc62138	0.0060464405
176	0x3cc723a0	0.02430898
177	0xbc90410a	-0.017609138
178	0x3cf8f06a	0.030388076
179	0x3c863ef0	0.016387433
180	0xbbb411ad	-0.005495271
181	0x3ca04dc0	0.019568324
182	0x3c99b3a8	0.018762425
183	0x3ab1af8e	0.0013556348
184	0xbc963049	-0.018333571
185	0x3c502b08	0.012705572
186	0x3c8d989b	0.017284682
187	0x3c94fa04	0.018185623
188	0x3c809f93	0.01570109
189	0x3c84d947	0.016216887
190	0x3be2abb6	0.006917442
191	0x3b33598b	0.0027366604
192	0xbcbcc11b	-0.023041299
193	0xbc1b24b1	-0.009469197
194	0xbb0d1745	-0.0021528762
195	0x3ab87e4b	0.0014075724
196	0xbc92787f	-0.017879723
197	0x3c955dcf	0.018233208
198	0x3b7ad421	0.0038273411
199	0xbcb063e0	-0.021532
200	0x3be4ddbb	0.00698444
201	0xbc92bc29	-0.017911987
202	0x3c1b4200	0.009476185
203	0x3c5c3729	0.013440886
204	0xbb96bbe1	-0.0046000336
205	0x3af886e4	0.0018961099
206	0xbbd0be60	-0.0063703507
207	0xbc852765	-0.016254136
208	0xb9a79afa	-0.0003196819
209	0x3ce49d6d	0.027907098
210	0x3c56a0bb	0.013099845
211	0x3c9f1f74	0.019424178
212	0xbb462aa1	-0.003023781
213	0xbb4146d3	-0.0029491677
214	0x3c88bdca	0.016692061
215	0xbad084cc	-0.0015908717
216	0xbc47be41	-0.012191356
217	0x3b94c4ae	0.0045400476
218	0xbc16371c	-0.009168413
219	0xbce96c0b	-0.028493902
220	0xbc1f12d9	-0.0097090835
221	0xbc9243f4	-0.017854668
222	0x3c0fddc9	0.008780905
223	0xbafa879d	-0.0019113902
224	0x3c46f72e	0.012143893
225	0x3b723af4	0.0036961408
226	0x3c23cfe7	0.009998298
227	0xbc0be320	-0.008538038
228	0x3bcb5c1d	0.006206049
229	0xbc27de45	-0.010245864
230	0x3cdff441	0.027338149
231	0x3c4b4bdc	0.012408223
232	0xbb24f460	-0.0025170073
233	0xbbc35d8a	-0.0059620785
234	0x3cb6c9f2	0.022313092
235	0xbba61d90	-0.005069442
236	0x3bb16cb8	0.0054145716
237	0x3d3842c5	0.04498555
238	0xbccdd27b	-0.025124779
239	0xbc072dda	-0.008250678
240	0x3ce0bb3b	0.027433028
241	0xbc90b93b	-0.01766645
242	0x3c21682a	0.009851495
243	0xbc46c124	-0.012131009
244	0xbba2f4a7	-0.0049730125
245	0x3badfe55	0.0053098598
246	0x3c244aa2	0.0100275595
247	0x3c829c5e	0.015943702
248	0xbc994807	-0.018711103
249	0x3bcd6c0f	0.006268985
250	0xbc09ee71	-0.008418665
251	0xbc271f5a	-0.010200346
252	0x3bab6274	0.0052302424
253	0x3ca12e28	0.01967533
254	0xba74ee89	-0.0009343406
255	0xbc8c380d	-0.01711657

1.bias f4 [64]
0	0xbdb2591b	-0.08708402
1	0xbd932f8f	-0.071868055
2	0xbd945a9b	-0.07243844
3	0xbe0d9e6d	-0.13829966
4	0xbc123736	-0.008924296
5	0x3e0b547a	0.13606444
6	0x3e05653a	0.13026896
7	0x3e4b64b9	0.19862641
8	0xbc0f36d2	-0.0087410975
9	0x3e1a87a7	0.1509081
10	0x3e08807c	0.13330263
11	0xbcc180c7	-0.023620976
12	0x3cac836b	0.021058759
13	0x3d8ba9c0	0.068194866
14	0x3e402af8	0.18766391
15	0x3add8679	0.0016901038
16	0xbce57264	-0.028008647
17	0xbca53633	-0.020167446
18	0x392e21d0	0.00016606529
19	0xbdc82f4f	-0.097746484
20	0x3b9ff854	0.004881898
21	0x3e233098	0.15936506
22	0x3ddeef26	0.10885458
23	0x3b907f1d	0.0044096843
24	0xbe232e1d	-0.1593556
25	0x3cde4133	0.027130699
26	0x3bae0101	0.0053101783
27	0x3e5131cc	0.20429152
28	0x3e1fee3b	0.15618221
29	0xbba43933	-0.0050117015
30	0xbd87d655	-0.066326775
31	0xbdab1aa9	-0.083546944
32	0xbd70bbf5	-0.058773
33	0xbda21d08	-0.079156935
34	0x3e4fe04c	0.20300406
35	0x3db1f1f9	0.08688731
36	0x3d178297	0.036989775
37	0xbe008b1e	-0.12553069
38	0x3a8c0db8	0.0010685241
39	0xbbce0bd2	-0.00628803
40	0x3d9d385d	0.07676766
41	0xbd73f924	-0.05956377
42	0x3d928cba	0.07155748
43	0xbe05bb84	-0.13059813
44	0xbd8d66c5	-0.06904367
45	0xbe2445c2	-0.16042235
46	0xbd0d33c9	-0.034473214
47	0x3c7dde91	0.0154949585
48	0xbc8b5fc8	-0.017013445
49	0x3ca11584	0.01966358
50	0x3bbae425	0.0057034665
51	0x3e622337	0.22083746
52	0xbe0f0825	-0.1396795
53	0x3d7e96c6	0.062155508
54	0xbd02cd5a	-0.03193412
55	0x3e343517	0.17598377
56	0x3c7f6684	0.0155884065
57	0x3df2b82f	0.118515365
58	0x3d79e40e	0.061008506
59	0x3dd3b7e2	0.10337807
60	0xbe3c2f36	-0.18377385
61	0x3e3ca6e3	0.18423037
62	0x3e1780cd	0.14795227
63	0x3db37b61	0.08763767

5.weight f4 [64, 64, 3, 3]
0	0x3cb3484f	0.021885065
1	0xbcdfcbc4	-0.027318843
2	0x3cd844da	0.026400018
3	0x3c05c131	0.008163736
4	0xbcb0eea1	-0.021598162
5	0x3c8a2804	0.016864784
6	0x3c4614df	0.012089937
7	0xbc85b240	-0.016320348
8	0xbcd7b51f	-0.026331482
9	0x3c499b35	0.012305071
10	0x3b42cfcd	0.002972591
11	0xbcdfaa32	-0.027302835
12	0xbc898ca1	-0.01679069
13	0xbccd7b6f	-0.025083272
14	0xbc77965b	-0.015111531
15	0xbc87a53b	-0.01655828
16	0x3d3eabc5	0.04655053
17	0x3b4a4836	0.0030865795
18	0x3ca91c27	0.020643307
19	0xbd37c0e6	-0.044861697
20	0x39ad76b6	0.00033085578
21	0x3c8a0b8f	0.016851215
22	0x3bbae495	0.0057035186
23	0xbcac128c	-0.021004938
24	0xba464702	-0.00075636816
25	0x3ca2b410	0.019861251
26	0xbc8c537d	-0.017129654
27	0x3cc403d1	0.023927601
28	0xbbc7d77e	-0.0060986867
29	0xbc134d64	-0.008990619
30	0xbc83575d	-0.016032869
31	0xbcb42dd7	-0.021994514
32	0x3bde61e4	0.006786572
33	0xbc94fd54	-0.018187203
34	0xbbd28741	-0.006424815
35	0xbbac9940	-0.0052672923
36	0xbc5e47f6	-0.0135669615
37	0x3ba37ce8	0.004989255
38	0x3aeb177e	0.0017936078
39	0xbd64954c	-0.055806443
40	0x3b852afa	0.004063961
41	0xbd06663c	-0.032812342
42	0x3d45bc4e	0.048275284
43	0xbba1404b	-0.0049209944
44	0x3d0fe673	0.035131883
45	0x3bbec106	0.00582135
46	0xbc4066ba	-0.011743242
47	0xba88d097	-0.0010438141
48	0x3be7cfe0	0.007074341
49	0xbc7f1195	-0.015568157
50	0x3d3514ae	0.044209175
51	0x3d24cee4	0.04023637
52	0x3c6115d5	0.013738115
53	0x3c365391	0.011128322
54	0xbc418ae7	-0.011812902
55	0x3c73d150	0.014881447
56	0xbcaef72f	-0.0213581
57	0xbc79d493	-0.015248436
58	0x3c98fe84	0.01867605
59	0xbc356689	-0.01107181
60	0xba4724ec	-0.00075967493
61	0x3c84f1b3	0.016228532
62	0xbca7b267	-0.020470811
63	0xbd3e3d1b	-0.046444993
64	0xbc0ed3e7	-0.008717514
65	0x3c9ba298	0.01899843
66	0xbc921d4e	-0.01783624
67	0xbcb3ac77	-0.021932824
68	0x3b51e5c8	0.003202783
69	0xbc79dcfa	-0.015250439
70	0x3cc37c81	0.023863079
71	0x3c8f1e09	0.017470377
72	0xbcf77233	-0.030205822
73	0xbd67c6fb	-0.056586247
74	0xbc8d2946	-0.017231595
75	0x3bd7d211	0.006586321
76	0x3d155a00	0.036462784
77	0xbcac5299	-0.02103548
78	0x3d44f522	0.04808534
79	0xbc4c340b	-0.01246358
80	0xbc5345a0	-0.012895018
81	0xbccb8896	-0.024845403
82	0x3cd92220	0.02650553
83	0x3cfbc00a	0.03073122
84	0x3c347b84	0.011015777
85	0xbd432006	-0.04763796
86	0xbcf68c69	-0.03009625
87	0xbd19e482	-0.037571438
88	0x3b8af578	0.004240688
89	0xbd0b8948	-0.03406647
90	0x3cecccb7	0.02890621
91	0x3d22035c	0.039553985
92	0x3d022443	0.031772863
93	0xbd7a2c53	-0.061077427
94	0x3c127f71	0.008941517
95	0xbd04e8fe	-0.03244876
96	0x3c4451b5	0.011982371
97	0x3cb99f54	0.022658981
98	0xbc4a61d4	-0.012352426
99	0xbc71c24f	-0.014755799
100	0xbcf7441a	-0.03018384
101	0x3d09279c	0.03348504
102	0xbc81dfda	-0.015853811
103	0x3d09f8df	0.033684608
104	0x3c16c6b9	0.009202653
105	0xbcb88d23	-0.022528237
106	0x3cc6a679	0.024249302
107	0xbc67b943	-0.014143291
108	0x3cfb0318	0.030641124
109	0xbb28e10d	-0.0025768906
110	0x3ccc765a	0.024958778
111	0x3ae0f932	0.001716411
112	0xbcdba17e	-0.026810404
113	0x3a75719b	0.0009362937
114	0xbd0fa693	-0.035070967
115	0x3bd5cc6b	0.0065246127
116	0x3cdbac11	0.026815446
117	0xbc5c0bab	-0.013430516
118	0x3c86621f	0.01640421
119	0x3c0d7a66	0.008635139
120	0x3c4bcd17	0.012439034
121	0xbce7e5ce	-0.028307822
122	0x3c18e7aa	0.009332577
123	0xbd242393	-0.04007299
124	0x3c886ddd	0.01665395
125	0x3cf90d91	0.030401977
126	0x3c497d4c	0.0122979395
127	0x3cb5ce42	0.022193078
128	0xbcb962f8	-0.0226302
129	0xbd054766	-0.032538794
130	0xbcb5491e	-0.022129592
131	0x3c82b7ef	0.015956847
132	0xbc0e2a8e	-0.008677138
133	0xbcc50d80	-0.024054289
134	0x3ac7e25a	0.0015249953
135	0xbccfe8cb	-0.025379559
136	0x3cdff9ec	0.027340852
137	0xbcade7b6	-0.021228652
138	0xbb51d5e5	-0.003201836
139	0xbcbcd77e	-0.023051973
140	0xbc0cbdbc	-0.008590158
141	0xb9cda896	-0.00039226253
142	0x3d075077	0.03303572
143	0xbcc1e4b0	-0.023668617
144	0xba74b6f4	-0.00093351235
145	0xbd0601f2	-0.0327167
146	0xbbe77517	-0.0070635187
147	0x3d023cfa	0.031796433
148	0x3c0368b7	0.008020571
149	0x3d5b456f	0.053533014
150	0x3d3595e0	0.044332385
151	0xbb618075	-0.0034408842
152	0x3d48907e	0.048965923
153	0xbd678492	-0.056522913
154	0xbc5df106	-0.013546234
155	0xbd0ec562	-0.034856208
156	0xbcffe59f	-0.031237422
157	0xbd3b71b3	-0.04576273
158	0x3c93e259	0.018052267
159	0x39a7001a	0.00031852798
160	0xbc9b4032	-0.01895151
161	0xbcfcb740	-0.0308491
162	0xbc680cac	-0.014163177
163	0x3c630d81	0.0138582
164	0xbb5e4d5d	-0.0033920624
165	0xbc94cf9b	-0.0181654
166	0xbd634f0c	-0.055495307
167	0xbda3db72	-0.0800084
168	0xbd29d2d5	-0.04146083
169	0xbc91f70a	-0.017817993
170	0xbdc15627	-0.094402604
171	0x3cc5ec0d	0.02416041
172	0xbc846b8c	-0.016164564
173	0xba0e783a	-0.0005434785
174	0xbcf040d7	-0.029327793
175	0xbd150456	-0.03638109
176	0x3d2b5bdf	0.041835662
177	0xbcb5629c	-0.022141747
178	0xbb9dad64	-0.0048119295
179	0x3c8f0019	0.017456101
180	0x3c1eb35a	0.009686315
181	0x3d406a12	0.046976157
182	0xbd3a3b22	-0.04546655
183	0xbc98d412	-0.01865581
184	0xbcc41e41	-0.023940207
185	0x3ca2a304	0.019853123
186	0xbd05c979	-0.032662842
187	0x3d1b1f07	0.037871387
188	0xbcc18a04	-0.023625381
189	0x3c793b33	0.015211868
190	0x3c80a42e	0.015703287
191	0xbb4d68ce	-0.0031342986
192	0x3d42bcea	0.047543444
193	0xbb10a4ea	-0.0022070953
194	0xbcde021e	-0.027100619
195	0xbca31876	-0.019909125
196	0xbca668b5	-0.0203136
197	0x3c209619	0.009801411
198	0xbd6ca816	-0.057777487
199	0x3bed3966	0.0072395084
200	0x3b94dc30	0.00454285
201	0xbc97fd0e	-0.018553283
202	0x3d0e9724	0.034812108
203	0xbbf7a4ce	-0.007557488
204	0xbcf1c686	-0.029513609
205	0xbd0ad7ab	-0.033897083
206	0x3d30423e	0.043031923
207	0x3d3bc89f	0.045845624
208	0x3bb80910	0.0056163147
209	0xbc5f2dfd	-0.013621804
210	0x3c362d0e	0.01111914
211	0xbcc69458	-0.024240658
212	0x3c0e9818	0.008703254
213	0x3cc41e12	0.02394012
214	0x3c41e913	0.011835354
215	0x3cd0f72b	0.025508484
216	0xbab458d1	-0.001375938
217	0xbc13bf6c	-0.0090178065
218	0xbcb699ad	-0.022290075
219	0x3bf0c6e8	0.00734793
220	0x3c3dc3fa	0.011582369
221	0x3c8c7462	0.01714534
222	0x3cc00f94	0.023444928
223	0x3c1998fe	0.009374855
224	0x3c377005	0.011196141
225	0xbd31823f	-0.043337103
226	0xbc005a67	-0.007834054
227	0x3c53d31e	0.012928752
228	0x3c22e6f9	0.0099427635
229	0x3cde2768	0.0271184
230	0x3c6c2170	0.014412269
231	0xbc6e75c5	-0.014554446
232	0x3c828eb8	0.015937194
233	0x3b481cd1	0.0030534754
234	0xbd46a299	-0.04849491
235	0x3c83c012	0.016082797
236	0xbb8c0a63	-0.004273699
237	0x3d38a3b7	0.045078006
238	0x3c885c8d	0.016645694
239	0x3bbbcb69	0.0057310355
240	0xbcc65810	-0.024211913
241	0x3cca8f10	0.02472642
242	0xbd114883	-0.035469543
243	0xbc750e9e	-0.014957098
244	0xbd421ec5	-0.047392625
245	0xbd411597	-0.04713973
246	0x3d0f8303	0.035037052
247	0xbd277143	-0.0408795
248	0x3d1005ec	0.035161898
249	0xbca0fa27	-0.019650532
250	0xbd164fa8	-0.03669706
251	0x3be3b667	0.0069492343
252	0xbb2b4769	-0.0026135093
253	0xbb8abaa8	-0.004233677
254	0x3d20ad2a	0.039227642
255	0x3d324882	0.04352618

5.bias f4 [64]
0	0x3add4cdf	0.0016883871
1	0x3c23a5c1	0.009988249
2	0xbcf61256	-0.03003804
3	0x3c375c06	0.011191374
4	0x3e1b3ce8	0.15159953
5	0xbe203da2	-0.15648511
6	0x3dcdd484	0.100503
7	0xbd413a58	-0.04717478
8	0x3e15f6a3	0.14644866
9	0xbdca047b	-0.09864136
10	0xbcd8ba47	-0.026456011
11	0xbc72782f	-0.014799162
12	0xbb8914b8	-0.004183378
13	0x3cf98181	0.03045726
14	0xbda64454	-0.08118501
15	0x3cd099fa	0.025464047
16	0x3a136ce3	0.00056238304
17	0xbd3112f5	-0.04323097
18	0x3b5024e8	0.003176028
19	0xbe3a894a	-0.18216434
20	0x3b44592d	0.002996038
21	0xbc9b320d	-0.018944765
22	0x3dd8f907	0.10594373
23	0x3e46b884	0.19406325
24	0x3d020121	0.031739358
25	0xbe1fbda0	-0.1559968
26	0x3ce78500	0.028261662
27	0x3e3cbe7f	0.18432043
28	0xbcee3e0a	-0.029082317
29	0x3c53c22a	0.01292471
30	0x3ce36997	0.02776031
31	0x3d6a4705	0.057196636
32	0xbe0a5dd5	-0.13512357
33	0xbdd96a33	-0.10615959
34	0xbc4df5bc	-0.012570795
35	0x3db708d8	0.08937234
36	0xbe1f2434	-0.15541154
37	0x3d1e3105	0.038620967
38	0x3dcd9c51	0.100395806
39	0xbdfdfa78	-0.12401289
40	0xbcb8cc0e	-0.022558238
41	0x3e183cdb	0.14866965
42	0x3c5d1039	0.013492637
43	0x3ba62642	0.0050704787
44	0x3e185da5	0.14879473
45	0x3e5b2824	0.21402031
46	0x3ce90462	0.028444473
47	0xbd653939	-0.055962775
48	0x3d95c6c6	0.07313304
49	0x3d1c908d	0.038223792
50	0x3d8636d7	0.065534286
51	0x3dcf73eb	0.101295315
52	0xbd3538ae	-0.044243507
53	0xbe0007bc	-0.1250295
54	0x3d2cf7a5	0.04222836
55	0x3cc73494	0.024317063
56	0xbcd7f488	-0.026361719
57	0xbb1aab1a	-0.002360052
58	0x3bf8718d	0.0075818957
59	0xbde3557f	-0.111002915
60	0xbdeeeeb2	-0.11666621
61	0x3c3f3e34	0.011672545
62	0xbd0a26b7	-0.033728328
63	0xbdeb8c72	-0.11501397

8.weight f4 [3, 64, 3, 3]
0	0x3c4d116e	0.012516363
1	0xbc953698	-0.018214509
2	0x3c51d4af	0.012807055
3	0x3c14121c	0.009037521
4	0xbc10a366	-0.00882802
5	0x3ce3aa17	0.027791066
6	0x3b7de02b	0.003873835
7	0x3ceb4b92	0.028722558
8	0xbc005fb4	-0.007835317
9	0x3c097b88	0.008391269
10	0xbc1c26d4	-0.009530742
11	0x3b3f5e72	0.002920058
12	0x3a5293ce	0.0008032889
13	0x3c2e7d35	0.010649969
14	0x3c6d4736	0.01448231
15	0x39f670aa	0.00047004718
16	0xbca5fa36	-0.020260911
17	0x3cbc1df0	0.022963494
18	0xbc2944c3	-0.0103313355
19	0xbcc288a0	-0.023746789
20	0x3aad0c69	0.0013202551
21	0x3c414536	0.011796286
22	0x3d2d59e1	0.042322043
23	0xbcd90fe1	-0.02649683
24	0xbacd3a93	-0.0015657715
25	0xbcd19258	-0.025582477
26	0x3c7c0af8	0.0153834745
27	0xbcb27b97	-0.021787448
28	0x3c17c8a6	0.009264147
29	0xbba7c0e2	-0.005119429
30	0xba4664fb	-0.0007568148
31	0xbb46fb7c	-0.0030362299
32	0x3cef7573	0.029230809
33	0x3c1aa266	0.009438133
34	0x3c9a582f	0.018840877
35	0xbd15a610	-0.036535323
36	0x3ca774d6	0.020441454
37	0x3cc9026d	0.02453729
38	0x3cde151e	0.027109679
39	0x3cb6624f	0.022263674
40	0x3b443f50	0.0029944964
41	0x3c18b1a2	0.009319695
42	0x3b49c0d7	0.0030785108
43	0x3c8ce500	0.01719904
44	0xbc9ec0d9	-0.019379066
45	0x3c806674	0.015673853
46	0xbc7f96b9	-0.0155999
47	0xbc102aa2	-0.008799227
48	0xbca9d564	-0.020731635
49	0xbd2702a4	-0.040774003
50	0xbd2b16f4	-0.041769937
51	0x3c05b0a6	0.008159792
52	0x3cc95f2e	0.024581518
53	0xbc14c2a7	-0.009079612
54	0xbc9b16f4	-0.018931843
55	0xbc1cc1cd	-0.00956769
56	0x3cb6a1e4	0.022293992
57	0x3cc442fb	0.02395772
58	0xbc84a1e9	-0.016190486
59	0xbd066000	-0.032806396
60	0x3d1a90a6	0.037735604
61	0x3d0ba232	0.03409023
62	0xbc8979d4	-0.016781725
63	0x3c2955c8	0.010335393
64	0x3d037f9f	0.03210413
65	0xbc2243ed	-0.00990389
66	0xbc81030a	-0.01574852
67	0x3c47109e	0.012149958
68	0xbc4eafc6	-0.01261515
69	0xbd2a8456	-0.04163011
70	0x3c9a1f7f	0.018813847
71	0x3b34ca69	0.0027586466
72	0xbc596ae4	-0.013270114
73	0x3b2a7254	0.0026008086
74	0x3cdc8b66	0.02692194
75	0x3cfb05a3	0.030642336
76	0xbb85d9dd	-0.004084809
77	0x3d098842	0.03357721
78	0x3caa41a9	0.020783262
79	0x3bf20876	0.0073862625
80	0x3cfb76c7	0.030696286
81	0x3d132d40	0.035931826
82	0xbb787252	-0.0037909937
83	0x3cc46555	0.0239741
84	0xbd0bee4d	-0.03416281
85	0xbb9b7673	-0.004744345
86	0x3b8d12f1	0.0043052365
87	0xbd14fcc5	-0.036373872
88	0xbcae99cb	-0.021313569
89	0xbc99ffe9	-0.018798785
90	0x3d0800c5	0.03320386
91	0x3c40ca79	0.011767023
92	0xbbb61027	-0.0055561247
93	0x3cfab3f1	0.03060338
94	0xbd103b89	-0.035213027
95	0xbce95e5d	-0.028487379
96	0x3d0ab811	0.033866946
97	0x3c640eb7	0.013919524
98	0xbbd33342	-0.0064453194
99	0xbca8bc12	-0.020597491
100	0xbcafedca	-0.021475691
101	0xbca06835	-0.01958094
102	0x3c42f6ba	0.0118996445
103	0xbcae3dea	-0.021269757
104	0xbc013be1	-0.007887811
105	0xbc950b57	-0.018193884
106	0xbd049292	-0.032366343
107	0x3c8017c9	0.015636342
108	0x3cf17669	0.029475408
109	0xbc539f13	-0.012916344
110	0x3cbe0f6e	0.023200717
111	0xb99f8795	-0.0003042786
112	0xbc5024c4	-0.012704078
113	0x3cf44553	0.029818213
114	0x3a898613	0.0010492228
115	0xbcecb720	-0.028895915
116	0x3cf4fb66	0.029905032
117	0xb9c850f4	-0.00038207287
118	0x3bea2108	0.007145051
119	0x3b818f53	0.003953853
120	0x3c196a14	0.00936367
121	0x3c00f240	0.007870257
122	0xbc07a73b	-0.008279617
123	0xbbcf8493	-0.0063329428
124	0xbb3d4e62	-0.002888583
125	0x3bb25134	0.005441809
126	0x3c80abcb	0.015706917
127	0xbc92f279	-0.017937886
128	0xbc020671	-0.007936106
129	0xbd175c45	-0.03695323
130	0x3d50b05d	0.050949443
131	0xbca32f48	-0.019920006
132	0xbb70cc3f	-0.0036742834
133	0xbc245981	-0.010031105
134	0xbb985170	-0.00464838
135	0xbb67c56b	-0.0035365473
136	0x3cebcda0	0.028784573
137	0xbc6fae68	-0.014628984
138	0x3bce18f0	0.006289594
139	0xbd2af1bf	-0.041734453
140	0x3cfa9aaa	0.030591328
141	0x3d0cae3f	0.03434586
142	0xbd0be642	-0.034155138
143	0x3c3040f0	0.01075767
144	0xbc632ab0	-0.013865158
145	0x3cc7692b	0.02434214
146	0xbc08d90b	-0.008352528
147	0xbd01b132	-0.031663127
148	0xbcf9d37c	-0.030496351
149	0xbcd864e5	-0.026415298
150	0x3b82384b	0.003973996
151	0xbc15efc2	-0.009151401
152	0x3c69563f	0.014241754
153	0xbcdbb643	-0.026820308
154	0xbc54f2fc	-0.012997385
155	0x3d1e2703	0.038611423
156	0x3cf59353	0.029977476
157	0x3b2db661	0.0026506411
158	0xbb954afc	-0.004556058
159	0xbd0a9a41	-0.033838514
160	0xbab3cf15	-0.0013718331
161	0x3c7b60a7	0.015342868
162	0xbc907237	-0.017632587
163	0xbc66a298	-0.014076851
164	0x3cd7ceb1	0.026343675
165	0xbcb49768	-0.022044852
166	0x3cc09dac	0.023512684
167	0xbb113267	-0.0022155286
168	0x3cfddc5c	0.030988865
169	0x3bc06f30	0.0058726296
170	0xbc934fbe	-0.01798236
171	0xbbbf7f7f	-0.005844056
172	0xbc761f1a	-0.015022064
173	0xbc0693c0	-0.008213937
174	0xbd5a96ac	-0.05336635
175	0xbc019d06	-0.007910972
176	0xbc924db3	-0.017859315
177	0xbba80389	-0.0051273745
178	0x3c2bcf88	0.010486491
179	0xbc96ef7c	-0.018424742
180	0xbc746c90	-0.014918461
181	0x3bc3da6e	0.0059769666
182	0xbd135eb8	-0.035979003
183	0x3d0b1b06	0.03396132
184	0xbc345777	-0.011007181
185	0x3bb87cce	0.0056301123
186	0xbd31ddab	-0.04342429
187	0xbccdd497	-0.025125785
188	0x3cda6b49	0.026662486
189	0xbd1dab6c	-0.03849356
190	0x3d0689ab	0.032846134
191	0xbc7b96d7	-0.015355787
192	0x3c7ee049	0.015556403
193	0x3acb0767	0.0015489877
194	0xbc0debf8	-0.008662216
195	0xbb765626	-0.003758797
196	0xbb4f56a9	-0.0031637347
197	0xbc051a71	-0.00812398
198	0x3b798b2a	0.0038077333
199	0x3b5136f4	0.0031923624
200	0x3cc2b7b8	0.023769245
201	0x3bad32f5	0.0052856156
202	0xbc3ee202	-0.011650564
203	0x3d13ebd7	0.036113586
204	0xbba16239	-0.004925039
205	0xbb86ba2a	-0.004111548
206	0x3c4a7c96	0.012358805
207	0x3cb40f39	0.021979915
208	0x3bd92ee1	0.006627903
209	0x3c72345c	0.014782991
210	0x3c87986c	0.016552173
211	0x3ce48e9d	0.027900035
212	0xbc0c6131	-0.008568094
213	0x3d07db30	0.033168018
214	0x3c3aac0b	0.011393557
215	0x3d3aa70c	0.045569465
216	0x3cd92a11	0.026509317
217	0xbcb94040	-0.022613645
218	0x3b835b7a	0.0040087076
219	0xbc81c20b	-0.015839597
220	0xba7caadd	-0.0009638498
221	0x3b129086	0.0022363975
222	0xbcaa8181	-0.020813705
223	0x3d4ff213	0.05076797
224	0xbc9014bb	-0.01758801
225	0xbb5e61eb	-0.0033932875
226	0xbcb46ee1	-0.022025527
227	0xbce7fa34	-0.028317548
228	0x3a1c5cd9	0.0005964763
229	0xbca5bf95	-0.020232955
230	0x3d16a59e	0.03677904
231	0xbd19eda3	-0.037580144
232	0xbc2d7931	-0.010587976
233	0xbd09de04	-0.033658996
234	0x3c9c5947	0.01908554
235	0xbc3a7efc	-0.0113828145
236	0xbc966238	-0.018357381
237	0x3c7456b4	0.01491325
238	0xbcc518bd	-0.024059648
239	0xbc8197a0	-0.01581937
240	0xbc0d2b67	-0.008616305
241	0xbbbcbbdd	-0.0057596997
242	0x3d1279d9	0.035760734
243	0xbc5153d7	-0.012776337
244	0xbce761e0	-0.028244913
245	0x3d0ee4c2	0.03488613
246	0x3d2dfde1	0.042478446
247	0x3c9cb4f9	0.019129263
248	0x3cc53439	0.024072753
249	0x3cac0ea6	0.021003079
250	0xbcdf3a0b	-0.027249357
251	0x3d398920	0.04529679
252	0x3c726d20	0.014796525
253	0xbc502435	-0.012703945
254	0x3c025136	0.0079539325
255	0x3c6ee486	0.014580851

8.bias f4 [3]
0	0x3d040995	0.0322357
1	0x3d3a1104	0.045426384
2	0x3d978d84	0.07400039
